…
test_labels = to_categorical(test_labels)

model. compile(optimizer = 'rmsprop',
               loss='categorical_crossentropy',
               metrics = ['accuracy'])
               
               
#保存训练过程与结果，最后显示
result = model.evaluate(x_test, y_test)
print(result)





###结果如下所示
model.fit(train_images, train_labels, epochs = 5, batch_size = 64)
Model: "sequential_5"
_________________________________________________________________
Layer (type)                 Output Shape              Param #   
=================================================================
conv2d_13 (Conv2D)           (None, 26, 26, 32)        320       
_________________________________________________________________
max_pooling2d_9 (MaxPooling2 (None, 13, 13, 32)        0         
_________________________________________________________________
conv2d_14 (Conv2D)           (None, 11, 11, 64)        18496     
_________________________________________________________________
max_pooling2d_10 (MaxPooling (None, 5, 5, 64)          0         
_________________________________________________________________
conv2d_15 (Conv2D)           (None, 3, 3, 64)          36928     
_________________________________________________________________
flatten_3 (Flatten)          (None, 576)               0         
_________________________________________________________________
dense_5 (Dense)              (None, 64)                36928     
_________________________________________________________________
dense_6 (Dense)              (None, 10)                650       
=================================================================
Total params: 93,322
Trainable params: 93,322
Non-trainable params: 0
_________________________________________________________________
Epoch 1/5
60000/60000 [==============================] - 28s 468us/step - loss: nan - accuracy: 0.1047
Epoch 2/5
60000/60000 [==============================] - 28s 469us/step - loss: nan - accuracy: 0.0987
…
